mnist_cnn_model.pth (torch, 903456 bytes, 8 tensors)

conv1.weight f4 [32, 1, 3, 3]
0	0x3e53ebb1	0.20695378
1	0x3c990e30	0.018683523
2	0x3eae1f12	0.3400808
3	0x3e9adae8	0.30245137
4	0x3d8a0458	0.0673911
5	0xbe7eefeb	-0.24896209
6	0x3d844de2	0.064601675
7	0xbed11734	-0.40838015
8	0xbe94f74d	-0.29094926
9	0x3e90796c	0.28217638
10	0x3e67cb4d	0.22636147
11	0x3f02f1ac	0.5115001
12	0xbeedc7a7	-0.46441385
13	0xbda95b1e	-0.08269332
14	0xbe607383	-0.21919064
15	0x3e476fde	0.19476268
16	0xbecf3d22	-0.40476328
17	0xbdfb50bf	-0.122712605
18	0xbf0c1925	-0.5472587
19	0x3ea105f3	0.3144985
20	0x3cf9dbca	0.030500311
21	0x3e62ec53	0.22160463
22	0x3ebd5b3a	0.36983663
23	0x3dabf032	0.08395423
24	0x3ebdf27d	0.37099066
25	0xbe806739	-0.25078753
26	0xbea73b20	-0.32662296
27	0xbe7494d5	-0.238849
28	0x3e2e60f6	0.17029175
29	0xbec9170b	-0.39275393
30	0x3eb338d1	0.35004285
31	0xbeae1cbb	-0.34006295
32	0x3dca162a	0.09867509
33	0xbda469d4	-0.080279976
34	0x3e8f1562	0.27946
35	0x3e505ac0	0.20347118
36	0x3e3139c7	0.17307197
37	0x3dc51501	0.09623147
38	0x3eadae65	0.33922115
39	0x3e61b20b	0.22040574
40	0xbe5dfbf6	-0.21678147
41	0xbefb2ee7	-0.4905922
42	0x3dcdb89b	0.10044976
43	0xbeb38055	-0.35058847
44	0x3e3cc80c	0.18435687
45	0xbefa1d1f	-0.48850343
46	0x3e251204	0.16120154
47	0x3eb95395	0.3619658
48	0x3e4624b0	0.19349933
49	0x3ed7b9d4	0.42133963
50	0xbd5726ba	-0.052527167
51	0x3da76438	0.08173412
52	0x3dd65f21	0.10467363
53	0xbe8d70a4	-0.27625
54	0x3e87e9f6	0.26545686
55	0x3ee976cc	0.45598447
56	0xbe9c8874	-0.30572855
57	0xbea12e86	-0.31480807
58	0x3ef5843a	0.47952443
59	0xbe136151	-0.14392592
60	0xbe784458	-0.24244821
61	0x3dd54635	0.104137816
62	0x3ec60cc1	0.38681605
63	0x3f09acd0	0.53779316
64	0x3d843bc3	0.06456711
65	0x3e4ccf34	0.20000917
66	0xbd253271	-0.040331308
67	0xbec8d974	-0.39228404
68	0xbe4da976	-0.20084175
69	0xbee975d5	-0.4559771
70	0xbd0876ec	-0.033316538
71	0xbe14dfc6	-0.14538488
72	0x3e5cfb84	0.2158032
73	0x3f09586a	0.53650534
74	0x3e18333e	0.14863297
75	0xbe2fb337	-0.17158209
76	0xbe948752	-0.2900949
77	0x3e8778f9	0.26459482
78	0xbec17dca	-0.37791282
79	0xbe217fcf	-0.15771411
80	0xbe976097	-0.2956588
81	0xbe936977	-0.287914
82	0xbe1ad5a5	-0.15120561
83	0xbd21ac50	-0.03947097
84	0xbe6f6889	-0.23379721
85	0xbe34d148	-0.1765796
86	0x3e8385ca	0.2568801
87	0x3e4a6dc3	0.19768433
88	0x3ea09992	0.31367165
89	0x3e9fd4e9	0.31217125
90	0xbdbab1cb	-0.091159426
91	0x3e77e32e	0.24207756
92	0xbeda0120	-0.42578983
93	0x3e6ba6a7	0.23012792
94	0x3d8dcd10	0.06923878
95	0x3d7d22a8	0.06180063
96	0xbd84c1be	-0.06482266
97	0x3eb02cfc	0.3440932
98	0x3d885b28	0.06658012
99	0xbe688a16	-0.22708926
100	0x3e61da56	0.22055945
101	0x3e638681	0.22219278
102	0x3ea96487	0.3308451
103	0x3eba7f05	0.36425033
104	0x3b14afca	0.0022687786
105	0xbe4ec0b8	-0.20190704
106	0xbed9c391	-0.42532018
107	0xbe074df1	-0.13213326
108	0xbeae26f5	-0.34014097
109	0xbe88b867	-0.26703188
110	0x3ea0cb12	0.3140493
111	0xbdfdc58f	-0.12391197
112	0x3e93d07a	0.28869992
113	0xbc04b3b6	-0.008099487
114	0x3e41a924	0.18912178
115	0xbdd97c59	-0.106194206
116	0x3e95e757	0.2927806
117	0x3e5b9e86	0.2144719
118	0x3ebb1fb1	0.36547616
119	0x3cdd6ed3	0.027030384
120	0xbec62d17	-0.38706276
121	0x3e760d68	0.24028552
122	0x3e79d5a5	0.24397905
123	0xbeb69b1a	-0.35665208
124	0xbde656b5	-0.11247007
125	0xbd832625	-0.0640376
126	0x3e8c915e	0.27454656
127	0xbd7ad171	-0.061234895
128	0xbe6ea9fe	-0.23307034
129	0x3ea3c64e	0.31987232
130	0xbe44ba23	-0.1921163
131	0xbea9eeb9	-0.33189943
132	0x3e82f66e	0.25578636
133	0x3e4d89cb	0.20072095
134	0x3e0e37d6	0.13888487
135	0xbdef184d	-0.11674557
136	0xbdbd35f9	-0.0923881
137	0xbeabda93	-0.33565196
138	0xbc62267e	-0.013803123
139	0xbe9faf18	-0.31188273
140	0x3df3e178	0.11908239
141	0xbd25184a	-0.040306367
142	0xbe9034c2	-0.2816525
143	0x3e0b2857	0.13589607
144	0xbe611c72	-0.21983507
145	0xbe77ec72	-0.2421129
146	0xbe5e4079	-0.21704282
147	0x3e0e801f	0.13916062
148	0xbe318d4d	-0.17339058
149	0x3db475c1	0.08811522
150	0x3e6a8deb	0.229057
151	0x3e8fd0c0	0.2808895
152	0xbca494ae	-0.020090427
153	0x3ea155a5	0.31510654
154	0xbeb60c66	-0.35556334
155	0xbed161b4	-0.40894854
156	0x3e87565f	0.26433083
157	0x3e01d1d3	0.12677698
158	0xbe688612	-0.22707394
159	0xbd059b9b	-0.0326191
160	0x3ea5e705	0.32402816
161	0x3e5582cc	0.20850676
162	0x3d1f22ed	0.038851667
163	0xbe10c902	-0.14139178
164	0xbe0d3a0d	-0.13791676
165	0xbd5fc1d3	-0.054628205
166	0xbeb7d128	-0.3590176
167	0xbaa29ea3	-0.0012406897
168	0xbdc0abd0	-0.09407771
169	0x3e58cfae	0.21172974
170	0xbe978b55	-0.2959849
171	0x3e844e51	0.25841
172	0x3e8bf27d	0.2733344
173	0xbe8de87a	-0.27716428
174	0x3dbed016	0.09317033
175	0x3da81a45	0.082081355
176	0xbeceb47d	-0.40372077
177	0xbdd1667b	-0.10224625
178	0x3ee668cf	0.45001838
179	0x3eb02897	0.34405968
180	0xbe4b2ca7	-0.19841252
181	0xbdca796c	-0.09886441
182	0xbe89e5d8	-0.2693317
183	0xbb187665	-0.0023263928
184	0xbebbf91c	-0.36713493
185	0xbe6ff916	-0.23434862
186	0x3eea7680	0.45793533
187	0x3eeafe12	0.45896965
188	0xbcdcfa96	-0.026974957
189	0x3df90e71	0.121609576
190	0x3ed62a29	0.4182904
191	0x3eed4da5	0.463483
192	0xbdeba10e	-0.11505328
193	0xbe21d0b6	-0.15802273
194	0xbd2d40cf	-0.042298134
195	0xbe9edd1e	-0.31028074
196	0xbecbcdf1	-0.39805558
197	0x3e13aa82	0.14420512
198	0xbeb7a990	-0.35871553
199	0x3eb2b349	0.3490241
200	0x3e526d11	0.20549418
201	0x3e9b21ae	0.30299133
202	0xbc9b0bb2	-0.018926475
203	0x3e018b6f	0.12650846
204	0x3ead9ba3	0.33907804
205	0xbe07952e	-0.13240501
206	0x3e39ae95	0.18133004
207	0x3e3718dd	0.17880578
208	0x3edf8104	0.4365312
209	0x3eb10002	0.34570318
210	0x3ee478bd	0.44623366
211	0xbe77cc31	-0.24198987
212	0xbeb711a5	-0.3575565
213	0x3e2958e6	0.16537818
214	0xbedd3833	-0.4320694
215	0xbeef0006	-0.46679705
216	0xbd9d3bfc	-0.07677457
217	0x3e829881	0.25506976
218	0xbe0bc85c	-0.1365065
219	0xbddec661	-0.108776815
220	0x3e397824	0.18112236
221	0x3e66b44b	0.22529714
222	0xbc644ed5	-0.013934811
223	0xbe6e850b	-0.2329294
224	0xbe26225c	-0.16224045
225	0xbef0e193	-0.470471
226	0xbe1eaddf	-0.15496014
227	0x3d94b85e	0.07261728
228	0x3e14a4e1	0.14516021
229	0x3e02ccc3	0.12773423
230	0x3ed0052f	0.40628955
231	0x3e857fcb	0.2607406
232	0x3e98b2fa	0.29824048
233	0xbe123983	-0.14279751
234	0xbd73aa47	-0.05948856
235	0x3e6dd7f6	0.23226914
236	0x3ee50924	0.44733536
237	0xbec882c1	-0.39162257
238	0xbe32ed2b	-0.17473285
239	0x3ed76189	0.420666
240	0xbe62f0cb	-0.22162168
241	0xbee5b975	-0.44868055
242	0x3ebb1c5d	0.36545077
243	0xbd645097	-0.05574092
244	0xbd33dfeb	-0.043914717
245	0x3e06d5a8	0.13167441
246	0x3e38a9bb	0.18033497
247	0xbd994946	-0.07484679
248	0xbe54ed66	-0.20793685
249	0xbe85480d	-0.26031533
250	0xbe57ea39	-0.21085443
251	0xbdfc5653	-0.123211525
252	0xbea8b534	-0.32950747
253	0xbcfbd321	-0.030740323
254	0x3ca998ee	0.020702805
255	0x3c8f29fb	0.017476073

conv1.bias f4 [32]
0	0xbd30d13d	-0.043168295
1	0xbe1c6053	-0.1527112
2	0xbd7b9d53	-0.061429333
3	0x3d7ebd22	0.06219209
4	0xbd24ae15	-0.04020508
5	0xbd3914e9	-0.045185957
6	0xbd0a19a5	-0.033715863
7	0xbe7c9c58	-0.24669015
8	0xbe56395d	-0.2092032
9	0x3dcadcc7	0.09905391
10	0x3e61d02a	0.22052065
11	0x3df4515b	0.1192958
12	0x3e2d302c	0.16912907
13	0xbda08800	-0.0783844
14	0x3e1457a6	0.1448656
15	0x3e5f27ef	0.21792577
16	0x3e564df7	0.20928179
17	0x3d4aeb74	0.04954095
18	0xbc4ab796	-0.012372872
19	0x3dd9eb45	0.10640577
20	0xbe99bfdf	-0.300292
21	0x3d4a189f	0.049339887
22	0x3cea6220	0.028611243
23	0xbd76cc1a	-0.06025324
24	0x3d1d8d01	0.03846455
25	0x3dbedff7	0.09320062
26	0xbde1b723	-0.11021259
27	0xbe8f43b1	-0.27981332
28	0xbe69f773	-0.228483
29	0x3e18e059	0.14929332
30	0xbd3bcede	-0.04585158
31	0x3dc3cf37	0.095610075

conv2.weight f4 [64, 32, 3, 3]
0	0x3d97e0d7	0.07415932
1	0xbdc07776	-0.09397785
2	0x3cf786f2	0.030215714
3	0xbd060d1e	-0.032727353
4	0xbd09ab02	-0.03361035
5	0x3d972e8b	0.07381924
6	0xbd7b80d7	-0.061402168
7	0xbdeaa4b7	-0.11457198
8	0x3dbc55a1	0.0919602
9	0x3dba2637	0.0908932
10	0xbc7da485	-0.015481119
11	0xbd9ae244	-0.07562688
12	0xbd3420c3	-0.043976557
13	0xbe1321be	-0.1436834
14	0xbdd04aa4	-0.101704866
15	0xbde4b595	-0.111674465
16	0xbde0bb77	-0.10973256
17	0xbd78e684	-0.06076671
18	0xbdbc75d9	-0.09202165
19	0xbe2448fc	-0.16043466
20	0x3de0765c	0.10960075
21	0xbdfa0f20	-0.12209916
22	0xb6459d4a	-2.9446842e-06
23	0x3db16520	0.08661866
24	0xbdbfd58e	-0.09366904
25	0x3de69415	0.11258713
26	0x3d8f8418	0.07007617
27	0xbc3c9448	-0.011509962
28	0xbc2119b4	-0.009832788
29	0xbcf866b3	-0.030322408
30	0xbd81fe27	-0.06347304
31	0xbcbaa723	-0.022784775
32	0xbbaeff28	-0.0053404756
33	0xbb06273d	-0.0020470165
34	0xbcde9901	-0.027172567
35	0x3d1fc901	0.03901005
36	0x3a071913	0.00051535777
37	0xbcd090d3	-0.025459683
38	0x3cee975c	0.029124908
39	0xbd80cb55	-0.062887825
40	0xbe4705f8	-0.1943587
41	0x3e0aed68	0.13567126
42	0xbdfd6696	-0.12373082
43	0xbc46e8cb	-0.012140463
44	0x3db88fce	0.090118036
45	0xbe048666	-0.12941894
46	0x3b0e197e	0.0021682675
47	0x3d11b985	0.035577316
48	0xbe18df49	-0.14928927
49	0xbaffa78e	-0.0019504891
50	0x3d725849	0.059166227
51	0xbd6938a7	-0.056938794
52	0x3d78dcf3	0.06075759
53	0xbd527d93	-0.05138929
54	0xbd7c4154	-0.06158574
55	0xbd1dc3d2	-0.038516827
56	0xbd568136	-0.05236932
57	0xbdb49ec5	-0.088193454
58	0x3d1b2d4a	0.037884988
59	0x3d21ffd4	0.039550617
60	0xbd0e37da	-0.034721233
61	0x3dbb1e55	0.09136645
62	0xbcc4ae17	-0.024008794
63	0x3d09d8ca	0.03365401
64	0xbda883d2	-0.08228268
65	0xbe09a390	-0.134413
66	0xbd7578f0	-0.059929788
67	0xbe8fd02e	-0.28088516
68	0x3db8e669	0.09028322
69	0xbd71e732	-0.059058376
70	0xbdcbd5c6	-0.099528834
71	0x3ce112da	0.02747481
72	0x3d86abe2	0.06575753
73	0xbd1143d6	-0.035465084
74	0xbd54c154	-0.051942185
75	0xbd394221	-0.04522908
76	0xbdcaa2aa	-0.09894307
77	0xbe4a2d2f	-0.19743799
78	0xbe0d694c	-0.13809699
79	0xbe2251b4	-0.1585148
80	0xbe340997	-0.17581783
81	0xbe333c7d	-0.17503543
82	0x3d9ab7d1	0.075545914
83	0xbc81b62b	-0.015833935
84	0x3d0b5100	0.034012794
85	0x3d977fc7	0.073974185
86	0xbd90e9c7	-0.070758395
87	0x3daaeb69	0.08345682
88	0x3dcc7336	0.09982912
89	0xbe531b1d	-0.20615812
90	0xbd8be7ab	-0.068312965
91	0xbb0a27e8	-0.0021080915
92	0xbd072199	-0.032991026
93	0xbd5747ef	-0.052558836
94	0xbb0f342d	-0.0021851168
95	0x3a7e5b31	0.00097029196
96	0xbcdf8073	-0.027282929
97	0x3d7f9773	0.062400293
98	0x3ce28ebe	0.027655955
99	0x3ca1a9c3	0.019734269
100	0xbaa9cdb2	-0.0012954979
101	0x3ca942e2	0.020661775
102	0xbdaac4ac	-0.083382934
103	0xbdbc42cf	-0.0919243
104	0x3d56f060	0.052475333
105	0xbdac1479	-0.08402342
106	0x3d5c1ac0	0.05373645
107	0x3be39207	0.006944898
108	0xbe035289	-0.12824453
109	0x3daf9b42	0.08574535
110	0xbd27b0eb	-0.040940206
111	0x3d26caca	0.04072074
112	0x3cd4261b	0.025897076
113	0xbde33a2e	-0.11095081
114	0x3be6605a	0.007030529
115	0x3e0f7dbe	0.1401281
116	0xbe43c4c2	-0.19118026
117	0x3d4b0b3a	0.049571253
118	0x3c6c141e	0.014409093
119	0x3bfec015	0.007774363
120	0xbdd6a46d	-0.104805805
121	0x3d8a1ce7	0.06743794
122	0xbdd5e2b1	-0.104436286
123	0xbde28b61	-0.11061741
124	0xbcb5d3a0	-0.022195637
125	0xbe336365	-0.17518385
126	0xbd27e7e0	-0.040992618
127	0xbd922546	-0.071360156
128	0x3d484e7e	0.04890298
129	0xbd26af49	-0.04069451
130	0x3c013c80	0.0078879595
131	0x3e00f056	0.12591681
132	0xbe11b9e3	-0.14231066
133	0x3c72cabd	0.014818844
134	0x3e3c6710	0.1839869
135	0x3d02b839	0.03191397
136	0x3b4c4ecc	0.0031174896
137	0xbd900792	-0.07032694
138	0x3d0241e7	0.03180113
139	0xba9e8594	-0.0012094253
140	0x3c56b7ba	0.013105327
141	0x3d9d28ee	0.07673822
142	0xbd358580	-0.04431677
143	0xbae8ea0b	-0.0017769946
144	0xbcbcd9fd	-0.023053164
145	0xbda61bcc	-0.081107706
146	0xbd1b8c13	-0.037975382
147	0xbd716e45	-0.05894305
148	0xbaf5338b	-0.0018707378
149	0x3c0577e1	0.008146257
150	0x3c265a3f	0.010153352
151	0xbdb63a86	-0.08897881
152	0xbd27aaa0	-0.040934205
153	0xbce9fd05	-0.028563032
154	0xbe0c95c8	-0.13729012
155	0x3cde5dc1	0.027144315
156	0xbdb50506	-0.08838849
157	0xbde3cd6f	-0.11123168
158	0x3dfeb5da	0.12437029
159	0xbd106459	-0.03525195
160	0xbd83085a	-0.06398077
161	0x3e31d0b3	0.17364769
162	0xbb02df24	-0.0019969428
163	0xbd6eadc0	-0.05827117
164	0x3ce669f9	0.028126704
165	0x3d212249	0.039339337
166	0x3b41dc18	0.002958065
167	0x3d29ee4f	0.041487034
168	0x3cd6e0aa	0.026230175
169	0xbd63bada	-0.055598117
170	0x3db0be5b	0.086300574
171	0xbe005f08	-0.12536252
172	0x3c07ee54	0.008296568
173	0xba062b7a	-0.0005118173
174	0xbd6b47a4	-0.05744137
175	0xbd41c964	-0.0473112
176	0xbca15c8b	-0.019697448
177	0xbe2ece26	-0.17070827
178	0x3dbd9918	0.09257716
179	0x3e0b7dd6	0.13622221
180	0xbd535e59	-0.05160365
181	0xbd82de26	-0.06390028
182	0xbdbd8e98	-0.09255713
183	0x3d70d137	0.058793273
184	0xbdb8c602	-0.09022142
185	0xbcd82dce	-0.026389029
186	0xbdf4f9b1	-0.11961687
187	0xbe01b91e	-0.12668273
188	0xbc274172	-0.0102084745
189	0xbbcd44dd	-0.0062643127
190	0x3dabd45a	0.08390112
191	0xbda07d25	-0.078363694
192	0xbd1942a5	-0.037417073
193	0xbd96bdff	-0.07360458
194	0xbe329bcf	-0.17442249
195	0xbd4e3f6d	-0.050353456
196	0x3b0316d5	0.0020002623
197	0xbe22b03c	-0.1588754
198	0x3c82cc09	0.015966432
199	0x3b820c32	0.003968739
200	0xbd0fa9a4	-0.03507389
201	0xbdc84cc3	-0.09780266
202	0xbc395831	-0.01131253
203	0x3cb11d5c	0.021620445
204	0xbd70216f	-0.058625635
205	0x3d7c178d	0.061545897
206	0xbd0a3ad5	-0.033747513
207	0x3d35d100	0.04438877
208	0xbdc789e7	-0.097431
209	0x3d9ad175	0.07559482
210	0xbcb7717a	-0.022392977
211	0xbcf826be	-0.030291911
212	0x3e30b076	0.17254815
213	0xbd65b39d	-0.056079496
214	0xbbc48880	-0.0059977174
215	0x3de220ae	0.110413894
216	0xbc9554f4	-0.018228985
217	0xbdd4ae22	-0.10384776
218	0xbcfb3a00	-0.030667305
219	0xbd024e61	-0.03181303
220	0xbd5122db	-0.05105863
221	0x3d479462	0.048725493
222	0xbd47d925	-0.04879107
223	0xbb0622b0	-0.0020467453
224	0x3c70bb19	0.014693045
225	0xbdfbc892	-0.12294115
226	0xbc64cbcc	-0.013964605
227	0xbc995752	-0.018718395
228	0xbda1d501	-0.079019554
229	0x3d8d0ecf	0.0688759
230	0x3cf8f116	0.030388396
231	0x3d191bd2	0.037380047
232	0x3c9c8000	0.019104004
233	0xbe1fcd74	-0.15605718
234	0xbceedc4a	-0.029157776
235	0x3db8ad14	0.09017387
236	0x3ba23f77	0.0049514133
237	0x3b9705cd	0.004608846
238	0x3df55f9c	0.11981127
239	0xbdc74ef3	-0.09731855
240	0x3d5e7ddf	0.05431926
241	0x3db5f1f1	0.08884037
242	0xbe52aeee	-0.20574543
243	0x3cad508f	0.021156577
244	0x3d1e8072	0.038696714
245	0xbd17b333	-0.037036132
246	0x3d416709	0.047217403
247	0xbd947499	-0.07248802
248	0xbcd975ad	-0.02654537
249	0x3c86b0a6	0.016441654
250	0xbe20c0fb	-0.15698616
251	0x3b5ae592	0.0033400995
252	0xbe5ef8fd	-0.21774669
253	0x3d62a66e	0.0553345
254	0x3de44a0e	0.11146937
255	0x3b773f11	0.00377268

conv2.bias f4 [64]
0	0xbc9f4440	-0.019441724
1	0xbdb1538a	-0.08658512
2	0xbdb97f86	-0.09057526
3	0xbd0de834	-0.034645274
4	0xbcc4a6a4	-0.024005242
5	0xbd5ea3a6	-0.054355286
6	0xbd9098fb	-0.07060429
7	0xbd0c8560	-0.034306884
8	0x3a115585	0.00055440544
9	0x3c069269	0.008213618
10	0x3c0c3e41	0.008559764
11	0xbcaa291c	-0.020771556
12	0xbb3ac80f	-0.0028500592
13	0x3c0f2d7b	0.008738871
14	0x3a7aa5e1	0.0009561461
15	0xbca663d9	-0.020311283
16	0xbdb85899	-0.09001274
17	0x3d4492b4	0.04799147
18	0xbd76efc6	-0.06028726
19	0xbdb8c37e	-0.09021662
20	0x3cf3d197	0.029763026
21	0xbc135065	-0.0089913355
22	0xbd56bd09	-0.05242637
23	0xbda24dd5	-0.079250015
24	0x3c2518f7	0.010076753
25	0x3c535618	0.012898944
26	0xbd3dcae1	-0.04633606
27	0xbce3d0f2	-0.027809594
28	0xbc61ac4d	-0.01377399
29	0xbdd4c4b4	-0.10389081
30	0xbd6bb0f2	-0.057541795
31	0xbcbcf007	-0.023063673
32	0xbd742797	-0.05960807
33	0x3ce3f9e5	0.02782912
34	0x3ce53935	0.02798138
35	0xbd457951	-0.0482114
36	0xbd0f18be	-0.034935705
37	0x3c8018f0	0.015636891
38	0xbd6f0cc4	-0.058361784
39	0xbbc6058d	-0.006043142
40	0xbcfc8050	-0.030822903
41	0xbca05be7	-0.019575072
42	0xbcdeca87	-0.027196182
43	0x3bc677df	0.00605677
44	0xbda4179e	-0.08012317
45	0xb9794265	-0.00023771224
46	0x3cc5d44b	0.02414908
47	0x3d0ae84d	0.033912946
48	0xbd9455af	-0.07242905
49	0x3cbc6aa6	0.023000073
50	0xbd62df97	-0.055389013
51	0xbcab7470	-0.020929545
52	0x3c0f8908	0.008760698
53	0xbd720b56	-0.059092842
54	0x3cf90bdb	0.030401161
55	0xbc0368f1	-0.008020625
56	0x3b759622	0.003747352
57	0xbdb54989	-0.08851916
58	0x3ce19a28	0.027539328
59	0xbd89e020	-0.067322016
60	0xbd80572e	-0.06266628
61	0x3c8acecb	0.01694431
62	0x3c6d8498	0.014496945
63	0xbc91bcbd	-0.017790193

fc1.weight f4 [128, 1600]
0	0x3ce0976b	0.027415952
1	0x3dd37ec0	0.1032691
2	0x3d638f0b	0.05555634
3	0x3d08841b	0.03332911
4	0x3e3d190b	0.18466584
5	0x3b521f45	0.0032062095
6	0x3c78656e	0.0151609015
7	0x3be85c6c	0.0070910957
8	0xbd6dae14	-0.058027342
9	0x3d1fa351	0.03897411
10	0xbd2a5693	-0.04158647
11	0x3ca318cc	0.019909285
12	0xbc97f82d	-0.018550957
13	0xbd43fc0f	-0.047847804
14	0x3c71282a	0.0147190485
15	0x3bb38b74	0.0054792706
16	0x3db36694	0.087597996
17	0xbb08d683	-0.0020879812
18	0xbb975968	-0.0046188124
19	0xbc26d6f4	-0.010183085
20	0x3ad49395	0.0016218299
21	0xbba1bceb	-0.004935851
22	0xbd280468	-0.041019827
23	0xbcea0bde	-0.028570112
24	0x3cd35535	0.025797466
25	0x3d1a1fac	0.03762786
26	0xbcbd7ae6	-0.023129892
27	0x3c804261	0.015656652
28	0xbc808ddf	-0.01569265
29	0x3c8364c0	0.016039252
30	0xbd888dde	-0.06667684
31	0xbd1a4d5d	-0.037671436
32	0x3c8497c2	0.016185645
33	0x3da3eb33	0.08003845
34	0x3dc66abf	0.09688329
35	0xbce6a65a	-0.028155494
36	0xbb8dd256	-0.0043280525
37	0x3c0427d3	0.008066135
38	0x3db4baa3	0.08824661
39	0x3c0ead48	0.008708306
40	0x3d17850c	0.036992118
41	0x3c115f5d	0.008872834
42	0xbd95242a	-0.07282288
43	0xbd465420	-0.04842007
44	0xbd730a38	-0.059335917
45	0xbd470322	-0.048586972
46	0xbe273214	-0.16327697
47	0xbd78f60b	-0.06078152
48	0x3d5c95ae	0.053853683
49	0x3d3102d2	0.04321558
50	0x3c17854a	0.009248087
51	0xbc35bfbd	-0.011093077
52	0x3c0194da	0.007909024
53	0x3d03557c	0.032063946
54	0x3cbc8fa1	0.023017706
55	0x3cdd35ca	0.027003188
56	0x3cdc5d56	0.026899975
57	0x3d396c66	0.045269392
58	0x3d382b94	0.044963434
59	0xbc37d51c	-0.011220243
60	0xbc94831c	-0.018128924
61	0x3d9f8712	0.077894345
62	0x3d2994ef	0.0414018
63	0x3d034eb4	0.03205748
64	0xbca9b5f6	-0.020716649
65	0xbb9f233c	-0.004856495
66	0x3d190979	0.03736255
67	0x3d37280a	0.04471592
68	0x3c2f065c	0.010682669
69	0xba4aeda6	-0.0007741101
70	0x3d18a967	0.03727093
71	0x3d3ade31	0.045622054
72	0x3c935ab8	0.017987594
73	0xbd7cb876	-0.061699353
74	0xbd413508	-0.047169715
75	0x3dd966f1	0.10615338
76	0xbc990109	-0.018677251
77	0xbd9b6f07	-0.07589536
78	0x3ae9cfab	0.0017838379
79	0x3d1e3bef	0.038631376
80	0x3cf4b104	0.029869564
81	0xbdd79fad	-0.105285026
82	0xbe365eea	-0.17809644
83	0xbdbaa303	-0.09113123
84	0xbd05d93b	-0.03267787
85	0xbdd87502	-0.105691925
86	0xbd1fce13	-0.039014887
87	0x3ccd6dce	0.025076773
88	0x3d59d3ea	0.053180613
89	0x3ca8a7e2	0.020587865
90	0xbdd4de82	-0.103940025
91	0xbdb9d4f4	-0.09073821
92	0xbd1805fb	-0.03711508
93	0xbce3ef3e	-0.02782404
94	0xbdefd002	-0.11709596
95	0xbd41e286	-0.04733517
96	0xbc707bce	-0.014677955
97	0x3cc6549d	0.024210269
98	0x3cb08de4	0.021552034
99	0xbc8d992d	-0.017284954
100	0x3ce51949	0.027966158
101	0xbbbebe14	-0.005820999
102	0x3bca9fd3	0.0061836033
103	0xbd230020	-0.03979504
104	0xbd3f7e8f	-0.046751555
105	0xbcc5d6d0	-0.024150282
106	0xbd136510	-0.035985053
107	0xbce69f85	-0.028152237
108	0xbaed2f8e	-0.0018095837
109	0x3cd0d2c2	0.025491122
110	0xbd2ae2df	-0.041720267
111	0x3c780d2f	0.015139862
112	0x3bcd9cb3	0.0062747835
113	0x3dc13959	0.09434766
114	0x3dbdd5af	0.092692725
115	0x3bbf7e03	0.005843879
116	0x3d60627b	0.05478142
117	0xbb64da26	-0.0034920066
118	0xbd0919e8	-0.03347197
119	0xbd6b463d	-0.05744003
120	0x3b151db1	0.0022753293
121	0xbd836392	-0.06415476
122	0xbd4256de	-0.047446124
123	0x3bf0d278	0.0073493086
124	0xbc9086cb	-0.0176424
125	0x3ce5ebfd	0.02806663
126	0xbc59403f	-0.013259946
127	0xbb898533	-0.004196787
128	0xbda776c6	-0.08176951
129	0xbc9c9ffe	-0.019119259
130	0x3b1c12e3	0.0023814968
131	0x3cbc2acc	0.022969626
132	0x3c667a25	0.014067207
133	0x3c5b8c66	0.013400173
134	0xbc1da6c5	-0.0096222805
135	0xb9470f01	-0.00018983708
136	0x3b807f86	0.003921452
137	0x3d9d5391	0.07681955
138	0x3d24c14d	0.04022341
139	0xbcb1baf4	-0.021695592
140	0xbcd27d43	-0.025694495
141	0xbcb808e3	-0.022465175
142	0x3d5069b2	0.05088205
143	0x3b1a7f65	0.0023574468
144	0xbcd2b770	-0.025722235
145	0xbcd9809d	-0.026550585
146	0xbc5ec79c	-0.013597395
147	0xbd2c5f62	-0.04208315
148	0x3cdeea92	0.027211461
149	0x3cdd16cf	0.026988415
150	0xbb49ef1a	-0.0030812682
151	0xbd8dc06f	-0.069214694
152	0xbd8801ca	-0.06640966
153	0x3bc13833	0.005896592
154	0x3c05f01e	0.008174924
155	0x3df96fff	0.12179565
156	0x3d454f3f	0.048171278
157	0xbcfe6263	-0.031052774
158	0x3b58ce80	0.0033082068
159	0x3d81709e	0.06320308
160	0x3da63ab7	0.08116668
161	0x3d2adefa	0.041716553
162	0x3d49784f	0.049187
163	0x3d3c8cfa	0.046032883
164	0xbccbc871	-0.024875851
165	0x3ca638be	0.020290729
166	0x3c6df9ba	0.0145248715
167	0xbd2803da	-0.041019298
168	0x3c7d984c	0.015478205
169	0xbd4cb404	-0.049976364
170	0x3cf9bc2e	0.030485239
171	0x3d46a6bc	0.048498854
172	0xbb9a1231	-0.0047018756
173	0xbbff6876	-0.007794435
174	0xbae19d3a	-0.0017212995
175	0x3dc4e915	0.09614769
176	0x3d90c5be	0.07068966
177	0x3d191b24	0.0373794
178	0x3cddb85c	0.027065448
179	0x3b9dd3c7	0.0048165056
180	0x3cfd7237	0.030938251
181	0xbdaa0230	-0.083011985
182	0xbdb016e9	-0.0859812
183	0xbd5dfd46	-0.05419662
184	0xbd55ad1c	-0.052167043
185	0xbdf4933f	-0.119421475
186	0xbd1c5a9a	-0.038172342
187	0x3c26d481	0.010182501
188	0x3d03a7d1	0.032142464
189	0x3d765d27	0.06014743
190	0xbc56c36f	-0.013108118
191	0xba6abf0d	-0.00089548604
192	0x3bba1054	0.005678216
193	0xbd62ead8	-0.055399746
194	0xbc3cacb6	-0.011515787
195	0xbce112c8	-0.027474776
196	0xbdbc2782	-0.09187223
197	0xbceeafcb	-0.029136559
198	0xbcc3c8bd	-0.02389943
199	0xbcccb05d	-0.02498644
200	0x3c016814	0.007898349
201	0x3d94c331	0.07263792
202	0x3c9b1b27	0.018933846
203	0xbded3adc	-0.11583492
204	0xbd8860e4	-0.066591054
205	0x3c263f3e	0.010146914
206	0xbdf5bfeb	-0.11999496
207	0xbdee6c79	-0.11641783
208	0xbd90b0ae	-0.07064949
209	0x3d5584b0	0.052128494
210	0xbda6601f	-0.081238024
211	0xbe002894	-0.1251548
212	0xbe05804f	-0.13037227
213	0xbd874c7b	-0.06606384
214	0x3cb21b1e	0.021741446
215	0xbd412d29	-0.04716221
216	0xbdd8762f	-0.10569417
217	0xbd036fde	-0.032089107
218	0x3a45789a	0.00075329246
219	0xbd9cac69	-0.07650072
220	0xbcb597f4	-0.022167183
221	0xbe16866f	-0.1469972
222	0xbdae1cff	-0.08501624
223	0xbd7278e2	-0.059197314
224	0xbd875236	-0.06607477
225	0x3d6e5540	0.05818677
226	0xbbf51ade	-0.0074800095
227	0xbd1656c8	-0.036703855
228	0x3cd7d1bc	0.026345126
229	0x3d57c9bd	0.052682627
230	0x3cb275ed	0.021784747
231	0xbc7b719e	-0.015346913
232	0xbc0b6f8b	-0.008510481
233	0xbc47de28	-0.012198962
234	0xbb855ed0	-0.0040701404
235	0xbd1a9fc1	-0.03775001
236	0xbd4bcfb3	-0.049758624
237	0x3d02a56a	0.031896032
238	0x3bfd47b3	0.0077294945
239	0xbb302421	-0.0026877003
240	0xbd491bbe	-0.049098723
241	0x3d64a022	0.055816777
242	0xbcfe21de	-0.031022009
243	0x3d6aa68b	0.057287734
244	0x3c9abdf9	0.018889414
245	0x3c816b45	0.01579822
246	0x3d970929	0.07374794
247	0x3cfea468	0.031084254
248	0xbcaa1b7e	-0.020765062
249	0xbd972727	-0.073805146
250	0x3d6f9e8d	0.058500815
251	0x3d35e52c	0.04440801
252	0xbd8e5a3f	-0.06950807
253	0xbd40f68b	-0.04711012
254	0x3d85fcf9	0.06542391
255	0x3d9bd08c	0.076081365

fc1.bias f4 [128]
0	0x3cabb5c1	0.02096069
1	0x3ce83ca3	0.028349226
2	0xbd43e964	-0.04783
3	0x3b505b66	0.003179276
4	0xbccdefa3	-0.025138682
5	0x3c809e61	0.015700521
6	0xbc1f1749	-0.009710141
7	0xbbee0076	-0.0072632385
8	0xbc10c403	-0.008835795
9	0x3d02c535	0.031926353
10	0x3bace562	0.005276368
11	0xbd0af8a6	-0.033928536
12	0xbcdb9b46	-0.026807439
13	0xbb7ea219	-0.0038853942
14	0xbcc38fe0	-0.023872316
15	0x3c099974	0.0083984025
16	0xbb96be03	-0.004600288
17	0x3b6363c9	0.0034696928
18	0x3d1639eb	0.03667633
19	0x3d56bfad	0.05242889
20	0x3d092cc7	0.03348997
21	0xbd0b1fe5	-0.033965964
22	0x3b95ce1a	0.0045716884
23	0x3c84b4a0	0.01619941
24	0xbc8d1d2e	-0.017225828
25	0xbce2d7de	-0.027690824
26	0xbd3af76e	-0.045646124
27	0x3c72b066	0.0148125645
28	0xbbb71fde	-0.0055885157
29	0x3b933e43	0.004493506
30	0x3b0e48d8	0.0021710899
31	0xbc29cbef	-0.010363563
32	0xbcc9db68	-0.024640754
33	0x3ca04aa7	0.019566847
34	0x3d2a5365	0.041583437
35	0x3b886f24	0.0041636396
36	0xbc9ffc67	-0.019529535
37	0x3c88ef70	0.016715735
38	0x3ce270f1	0.027641745
39	0x3c293922	0.010328563
40	0x3d13c6c7	0.03607824
41	0xbb93f48b	-0.004515236
42	0xbd1077b5	-0.03527041
43	0xbca1d0a1	-0.019752802
44	0x3d6a198d	0.057153273
45	0x3ae61656	0.0017554264
46	0x3c268967	0.010164595
47	0xbcbb4f6f	-0.022865025
48	0x3c294a5c	0.01033267
49	0x3c1705c9	0.009217688
50	0x3c1d03d6	0.009583434
51	0xbd6465b9	-0.055761073
52	0xbc3deb3b	-0.011591728
53	0x3cb27482	0.02178407
54	0xbb20fc8e	-0.0024564597
55	0x3c7b3d1b	0.015334393
56	0x3b0fab0e	0.0021922025
57	0x3be6315b	0.0070249266
58	0xbbce1682	-0.0062893042
59	0xbd1a4b71	-0.037669603
60	0xbc9a4f3c	-0.01883661
61	0xbabe3612	-0.0014511964
62	0x3d374113	0.044739794
63	0xbc887f43	-0.016662246
64	0x3cc6004e	0.024170067
65	0x3ca0234b	0.019548079
66	0xbbbd0a53	-0.005769053
67	0xbcc08b55	-0.023503939
68	0xbc016853	-0.007898408
69	0x3cc76191	0.024338515
70	0xbd10408d	-0.03521781
71	0xba20cfeb	-0.0006134498
72	0xbcc18341	-0.023622157
73	0x3983217c	0.00025011215
74	0xbcaf828d	-0.021424556
75	0xbc61ce99	-0.013782167
76	0x3d0868a5	0.03330292
77	0xbd6468c1	-0.055763964
78	0x3c8c8271	0.017152043
79	0xbd03a53c	-0.03214
80	0xbbc94ef5	-0.0061434456
81	0x3ccbfb7a	0.024900187
82	0xbbf88a1b	-0.007584823
83	0x3b17195b	0.0023055885
84	0x3d11161d	0.03542148
85	0xbc800bb2	-0.015630577
86	0xbb8e776c	-0.0043477323
87	0x3b317355	0.00270768
88	0xbcb5db37	-0.022199256
89	0x3d077bd9	0.033077095
90	0xbccbb381	-0.024865868
91	0x3bcd7bf6	0.006270881
92	0xbc8bbd46	-0.017058026
93	0x3b6d1ca3	0.00361804
94	0x3d0d4f80	0.034499645
95	0x3d26d3ac	0.04072921
96	0xbba11173	-0.00491541
97	0xb8364b56	-4.3462343e-05
98	0x3d696e32	0.056989856
99	0x3a277271	0.00063875975
100	0x3c5eba2a	0.01359419
101	0xbc81122f	-0.01575574
102	0xbd039572	-0.032124944
103	0x3d10f00b	0.035385173
104	0xbcc22eda	-0.023703981
105	0xbcb65fd2	-0.022262488
106	0xbb850709	-0.0040596765
107	0xbd395825	-0.045250077
108	0xbd474a08	-0.048654586
109	0x3cb98139	0.022644626
110	0xb99d1cb1	-0.0002996675
111	0x3ac8b4d6	0.0015312682
112	0xbcb2706d	-0.021782124
113	0xbc5aa73e	-0.013345538
114	0xbcceeea8	-0.025260285
115	0xbcb2ffa7	-0.02185042
116	0x3a941dec	0.0011300421
117	0xbcd24819	-0.025669144
118	0x3c37ecec	0.01122592
119	0xbc257974	-0.010099757
120	0x3ac1347d	0.0014740374
121	0xbb47d4ed	-0.0030491904
122	0x3d533b59	0.05157027
123	0x3d9a29ec	0.07527527
124	0xbc89ed95	-0.01683692
125	0x3ba64960	0.005074665
126	0x3b6f1daf	0.0036486199
127	0x3d3df3c8	0.046375066

fc2.weight f4 [10, 128]
0	0x3d557c88	0.052120715
1	0x3cdfcf0a	0.027320404
2	0xbcf1207a	-0.029434431
3	0xbd8a2b47	-0.06746536
4	0x3d3617fc	0.044456467
5	0x3d791fae	0.060821228
6	0x3d8a8f14	0.06765571
7	0x3b964150	0.0045854226
8	0xbe246cef	-0.1605718
9	0x3dbb4a88	0.09145075
10	0x3d5edff2	0.05441279
11	0xbe6844dd	-0.2268252
12	0xbb7e5aa9	-0.0038811362
13	0x3dd71c59	0.10503454
14	0x3e07838a	0.13233772
15	0x3a82e705	0.0009987062
16	0x3d29363d	0.04131149
17	0x3d812c97	0.06307333
18	0xbcd2ba35	-0.025723556
19	0x3e276bd0	0.16349721
20	0x3d3905f3	0.04517169
21	0xbd809bda	-0.06279726
22	0x3c45e7f0	0.012079224
23	0xbcfb40b9	-0.03067051
24	0x3d04f579	0.032460663
25	0x3d960968	0.07326013
26	0x3d544b05	0.051829357
27	0x3d226a88	0.039652377
28	0xbc6943a7	-0.014237321
29	0xbd9cacd1	-0.076501496
30	0x3da53909	0.08067519
31	0x3d4a9ec5	0.04946782
32	0xbc975e4b	-0.01847758
33	0x3d9ca77a	0.07649131
34	0xbdb147cb	-0.086562715
35	0xbe083f2f	-0.13305353
36	0xbd6a17f7	-0.05715176
37	0xbdedfa7a	-0.1162004
38	0xbdff75bc	-0.12473628
39	0xbded9ea6	-0.116025254
40	0x3dbc99b9	0.09209008
41	0xb8695154	-5.562727e-05
42	0xbd08fadf	-0.033442374
43	0xbd78bd2b	-0.06072728
44	0xbe0f9950	-0.14023328
45	0xbd1f84ff	-0.038945194
46	0x3d298cd8	0.041394085
47	0xbdde0403	-0.10840609
48	0x3d2240ab	0.039612453
49	0x3d5cac29	0.053875122
50	0x3d10bb89	0.035335097
51	0x3cdbaad6	0.02681486
52	0xbd2323bb	-0.039828997
53	0xbc7e6309	-0.0155265415
54	0x3c9a6b90	0.018850118
55	0x3de97678	0.11399549
56	0xbb1b7d5c	-0.0023725843
57	0xbdbfab57	-0.09358852
58	0x3ddbd179	0.10733313
59	0xbca32730	-0.019916147
60	0xbd2e5745	-0.042563695
61	0xbe2a937e	-0.16657826
62	0xbd8a9bd7	-0.06768005
63	0xbd70e5f7	-0.05881306
64	0x3d888358	0.06665677
65	0x3d7f173a	0.06227801
66	0x3da36aa4	0.079793245
67	0xbd67463a	-0.056463458
68	0x3c736082	0.014854552
69	0x3dcaab4b	0.09895953
70	0x3c127025	0.00893787
71	0xbd2da380	-0.042392254
72	0x3d87587c	0.06608674
73	0x3dcfa4fc	0.1013889
74	0x3bb9f6d7	0.0056751776
75	0x3dc74370	0.097296596
76	0xbd9e70b0	-0.07736337
77	0xbd209617	-0.039205637
78	0xbcffa7c1	-0.031207921
79	0x3d61e09a	0.055145837
80	0xbdd7f437	-0.10544627
81	0x3dff97cb	0.12480124
82	0xbdaa5368	-0.0831669
83	0xbdeb05b9	-0.11475701
84	0xbdc3d127	-0.09561377
85	0x3d9fa149	0.077944346
86	0x3dd73cec	0.10509667
87	0xbce1f528	-0.02758272
88	0xbd2bfd35	-0.041989524
89	0x3cf718a6	0.03016312
90	0x3942955d	0.00018556924
91	0x3da7c55a	0.08191939
92	0xbda1ca0c	-0.078998655
93	0xbd15f6af	-0.03661221
94	0xbdf289fe	-0.11842726
95	0x3cad50b5	0.021156648
96	0xbe1edfea	-0.15515104
97	0xbe2de355	-0.16981252
98	0xbd38a7ca	-0.04508189
99	0xbd0cc82d	-0.03437059
100	0xbce893a5	-0.028390715
101	0x3cbede9d	0.02329951
102	0xbdd09dcf	-0.101863496
103	0x3dfedb3a	0.12444158
104	0xbc05fa2b	-0.0081773205
105	0x3b8fb4cc	0.0043855663
106	0xbdedc851	-0.11610473
107	0xbd110e42	-0.035413988
108	0xbe0b6cd3	-0.13615732
109	0xbdc88ee1	-0.09792877
110	0xbd911ec3	-0.070859455
111	0x3d8128f8	0.06306642
112	0xbd56f3fe	-0.052478783
113	0x3dd52365	0.104071416
114	0x3d0d718b	0.03453211
115	0xbd4b32e2	-0.049609073
116	0x3d69b491	0.057056967
117	0x3d482983	0.048867714
118	0xbd8998b1	-0.06718577
119	0xbd9ffbee	-0.07811724
120	0xbd8948ad	-0.06703315
121	0xbbcc66e5	-0.006237852
122	0xbce5e322	-0.028062407
123	0xbd806672	-0.0626954
124	0xbd4cf4b2	-0.050038047
125	0x3d2973e4	0.041370288
126	0xbe0e5a93	-0.13901739
127	0x3c34f5f8	0.011044972
128	0x3d646fbe	0.05577063
129	0x3d78b5bc	0.06072019
130	0x3a4ba8fd	0.00077690167
131	0x3dea3e27	0.11437636
132	0xbd658225	-0.05603232
133	0xbcfcb21f	-0.030846654
134	0xbe1e5dae	-0.15465423
135	0xbd9da1da	-0.07696886
136	0xbdf368a8	-0.11885196
137	0xbe07a53a	-0.13246623
138	0x3c8d1a9b	0.0172246
139	0xbdbc3679	-0.09190077
140	0xba0082c4	-0.0004902298
141	0xbd9b4b9f	-0.07582783
142	0xbcab0531	-0.020876499
143	0x3d8a46a5	0.067517556
144	0xbe2f5b75	-0.17124732
145	0xbcb4130e	-0.021981742
146	0x3de5f437	0.11228221
147	0x3e0116ca	0.1260635
148	0xbdd5e63c	-0.10444304
149	0x3d3bd22a	0.045854725
150	0x3cf54455	0.02993981
151	0x3d7014aa	0.058613457
152	0xbd0c2466	-0.0342144
153	0xbd82e9d3	-0.06392255
154	0x3d98e693	0.074658535
155	0x3d59d006	0.053176902
156	0x3d0c7b6b	0.034297388
157	0x3d5c8fb7	0.053847995
158	0xbd4e720a	-0.050401725
159	0xbdcbf496	-0.099587604
160	0xbcc77b4f	-0.02435079
161	0xbd592d40	-0.05302167
162	0x3daa8689	0.08326442
163	0xbe061167	-0.13092576
164	0xbe10fe6e	-0.14159557
165	0x3d844700	0.06458855
166	0x3d42473d	0.04743122
167	0x3ddb2dfb	0.107021295
168	0x3c086887	0.0083257025
169	0x3e1d0915	0.15335496
170	0xbd96bfa4	-0.07360771
171	0x3cb78c12	0.022405658
172	0x3d449820	0.04799664
173	0xbd96f862	-0.07371594
174	0xbdd13836	-0.102157995
175	0xbd4d3ce1	-0.050106887
176	0x3dab5683	0.0836611
177	0xbe0b0a08	-0.13578045
178	0xbd6e3f54	-0.058165863
179	0xbd667a9e	-0.05626928
180	0xbe1f0951	-0.15530898
181	0x3ce62d44	0.028097756
182	0x3d040000	0.032226562
183	0xbda1644d	-0.07880459
184	0xbdd83d17	-0.10558527
185	0x3d66fe4c	0.05639486
186	0xbc12e881	-0.008966566
187	0xbd2f5ed4	-0.042815045
188	0x3cdbb9dd	0.026822025
189	0xbdd06ce8	-0.10177022
190	0x3d92f01e	0.07174705
191	0xbdba28e1	-0.09089828
192	0x3d63bac5	0.05559804
193	0x3de53e62	0.11193539
194	0x3cfc2b0d	0.030782247
195	0x3d788894	0.060677126
196	0x3d914708	0.07093626
197	0x3a97cf89	0.0011582236
198	0xbe072214	-0.13196594
199	0xbdbe092c	-0.09279093
200	0xba857f0d	-0.0010184959
201	0xbe2f9dd0	-0.17150044
202	0xbd235622	-0.039877065
203	0x3d7fcb0f	0.06244951
204	0x3d41386f	0.04717296
205	0xbd2c1560	-0.042012572
206	0x3c072984	0.008249644
207	0x3da02f87	0.07821565
208	0x3d3d68b2	0.046242423
209	0xbd6a8e64	-0.0572647
210	0xbe0368bf	-0.12832926
211	0x3dae438b	0.085089765
212	0x3dcded59	0.10055036
213	0xbd284be4	-0.041088
214	0xbd8636b7	-0.06553405
215	0xbd55e30f	-0.052218493
216	0xbc5ec8b0	-0.013597652
217	0x3cc6921a	0.024239589
218	0x3c5b6f5e	0.013393251
219	0xbd80d089	-0.06289775
220	0xbc16d8e7	-0.009206987
221	0xbd51f13a	-0.051255442
222	0x3d851ad8	0.06499261
223	0x3da2778c	0.07932958
224	0xbd8c0870	-0.06837547
225	0x3d99ebf1	0.075157054
226	0x3de71767	0.112837605
227	0x3c3f61ec	0.011681061
228	0x3e338e7a	0.17534819
229	0x3d7d0fb4	0.061782554
230	0xbd14da57	-0.036341038
231	0xbe36eaf7	-0.1786307
232	0xbca62515	-0.020281354
233	0x3bcadf82	0.006191195
234	0xbaf40502	-0.0018617215
235	0x3d449b68	0.04799977
236	0xbe16e7d5	-0.14736874
237	0x3d7dee6f	0.061994966
238	0xbcb03a0b	-0.021512052
239	0xbca50a4c	-0.020146511
240	0xbc29403d	-0.010330257
241	0xbde241b6	-0.110476896
242	0xbdf70a83	-0.12062552
243	0x3ab62ae8	0.0013898285
244	0xbdfb652d	-0.12275157
245	0xbd06ee0b	-0.03294186
246	0xbd90f79a	-0.07078476
247	0xbd9f13e6	-0.07767467
248	0xbd998d9e	-0.074977145
249	0xbc26f5fb	-0.010190482
250	0x3dc523c2	0.09625961
251	0x3e1fdee9	0.15612377
252	0x3d4d0254	0.05005105
253	0xbc4a2af9	-0.012339347
254	0x3d242437	0.0400736
255	0x3d9365bb	0.07197138

fc2.bias f4 [10]
0	0x3c09ea57	0.008417687
1	0x3d214508	0.039372474
2	0xbcb582ba	-0.022157062
3	0xbd0d029a	-0.03442631
4	0xbd83c806	-0.06434636
5	0xbd2371e9	-0.039903555
6	0xbdaa851f	-0.08326172
7	0xbc2397e4	-0.009984944
8	0x3d5de538	0.05417368
9	0xbd8f9af2	-0.07011975
